QSNNs-main/DVS_t0.pt (torch, 103651 bytes, 11 tensors)

conv1.weight f4 [16, 2, 5, 5]
00000000: e837 95bc 6cb1 653d 585a 0bbe 96c2 efbd
00000010: d1ae 8abd 0722 043d 927c 5bbc 5875 cb3d
00000020: 76e3 8bbc c7d6 cb3c bde5 17bd 77ee 04bd
00000030: ac1f 09be 7ad8 c0bd 29e0 8bbd fc4c 1d3d
00000040: be88 b33d c3ec d73d 11d9 b0bd 6261 8dbd
00000050: 788c a73d b40e 133e 9af7 9ebc 34a1 d13d
00000060: 0cd5 1fbd 20b7 64bc 286f c23d 69fd 16be
00000070: 86e6 c0bd d38b 2ebd 4e2d 9abd acce c13d
00000080: 17f2 ecbd e6b4 90bd 9908 dabd 364b 17be
00000090: 9168 e3bd 63eb c63d 76aa 7c3d 3285 8b3d
000000a0: 6aef d8ba ba44 b2bd 0467 5a3b a1a1 0dbe
000000b0: ece9 d0bd d08d bbbd d569 7a3d 5aa9 473d
000000c0: dd06 bfbd 82a5 c6bc e637 843d 250d eb3d
000000d0: a30b 0c3d a886 e3bb c77f 733d 010b f3bd
000000e0: e500 babb 3b5f 0ebe d31f 05be 9661 e1bd
000000f0: 865e 063d a889 e93c 1583 e4bd d170 473c
00000100: d4da 303d c9ba 39bd 7467 9cbc 6631 0d3c
00000110: a7ac 813d cfcc da3d 987c 0ebe 005a a0bd
00000120: c495 013d 3b32 c73d 12b2 c43d 6664 c53d
00000130: 3ac7 daba ab23 19be 64be 82bc a74f 00be
00000140: 95f7 22be 06db c33d c539 a23d f5b9 2bbe
00000150: 346f 34bc 50a1 5fbd 37d7 55bd 4d75 bfbd
00000160: fed4 ba3c 5d3a f7bd c261 af3c 96ea 2f3d
00000170: 205f 953d 198a ba3c 2104 3bbe 43b0 ffbd
00000180: 423e 2f3d 4054 383b c3a5 0dbe f821 ecbd
00000190: 1efe e33d 0709 9c3d bf99 a4bd 3605 6ebd
000001a0: bee4 27be 9256 c5bc 9cbb febd 1741 01be
000001b0: b9b0 cbbc 3b1e 9dba dd63 a4bd 4f3b 873d
000001c0: aa97 cebd c859 ea3d 327a a03d ab11 14be
000001d0: 94cf 70bd e367 68bc 5efb ec3a e47c 433c
000001e0: 7657 f43c df06 a9bc aa70 cabd 3340 1b3d
000001f0: 4204 2cbe d073 e7bd cf38 74bd ffe4 bbbd
00000200: 638c 9bbd 46b8 18be 80d0 60bd fae0 0e3c
00000210: 1af9 efbd 4101 12bd 3189 8c3d 5987 0abd
00000220: 0a42 7abc edf8 0fbd f561 4c3b 886b 753d
00000230: 6172 e93d 933d 903d 785b e63d 9046 0fbd
00000240: c8cf 20be 30f3 bebd 61b9 913d eeaf e6bc
00000250: 218e d0bd 40c9 15be c553 39be 0aee 2bbe
00000260: d347 89bd 2a50 3e3d b34a 3c3d b13b 3cbe
00000270: 2e94 1c3d 2a89 24be 922e 91bd 1d83 b8bd
00000280: 8283 82bd 4187 8dbd 0943 38be ac51 33be
00000290: e697 86bd 160a adbc 283c c1bd c2c2 3c3c
000002a0: b3e2 39be 3d51 8bbd 07ed df3d e9c0 a2bd
000002b0: 7e85 ce3d 735d 5c3c 00ff 41be 299c 6e3d
000002c0: e6b2 64bd 076b d2bd 1c04 963d d57a 21be
000002d0: 857a bdbc 9de8 9dbd 70c9 583d 6961 e9bb
000002e0: ace5 9d3c 0f3a 6c3c 5775 9dbd eeaf acbd
000002f0: c82e 32be 5ce0 983c b053 a93d d2f9 823d
00000300: c7fa 15be a450 65bd 7f3c 2dbe 05fc d5bd
00000310: e681 e3bd 4787 343c ec99 0bbe 5e4f 9cbd
00000320: a90d 88bc 7348 953d c6f6 febd 4eb4 f8bd
00000330: 0977 ecbd 30d8 9e3d c23d 85bd 32d0 d93d
00000340: 11e6 fd3c 5240 34bc fb26 dcbc c30f 43bd
00000350: 65c2 0fba 3537 65bd 4c2c 04bd 8a16 3dbc
00000360: 5f40 0ebe d319 d2bd 86aa a83d ecd9 1cbe
00000370: 50e4 32bd 227b d63d c3db 633c d5ba 14bd
00000380: 12a6 2cbe e533 343d 64a8 f9bd f61e 75bd
00000390: 6de9 91bd d603 55bd 1ca7 bebc bb7f c73d
000003a0: 5b61 a4b8 9cdd d43d a26f 683d 87e6 efbd
000003b0: eea2 273d bec1 f8bd 3d22 b1bd e373 063c
000003c0: c277 6d3c 13a3 9e3d ddc3 97bd 728d 04bd
000003d0: 6010 093d 1512 32be 9e03 893d 3efe 1dbe
000003e0: e738 22bd 7724 91bd 170b a4bd 2915 3e3d
000003f0: 8f97 1d3e 86e2 85bc 6111 98bd a3fb 6bbd
-0.018215135 0.056077406 -0.13608682 -0.11707036 -0.06771625 0.032259014 -0.013396399 0.09934491
-0.017076235 0.024882687 -0.03708433 -0.03245398 -0.13390988 -0.0941629 -0.068298645 0.038403496
0.08766316 0.105432056 -0.08635152 -0.0690334 0.08181089 0.14361078 -0.019405175 0.10235825
-0.039021537 -0.013959676 0.094938576 -0.14745106 -0.09418969 -0.042613816 -0.075281724 0.09463248
-0.115696125 -0.07065754 -0.10646171 -0.14774784 -0.11103929 0.09712865 0.061686 0.06812514
-0.0016550843 -0.08704515 0.0033325562 -0.13831188 -0.10200867 -0.09157908 0.061136086 0.04874549
-0.09327481 -0.024248842 0.06455974 0.114771165 0.034190785 -0.0069435425 0.05944803 -0.11867333
-0.005676376 -0.13903515 -0.13000421 -0.11004941 0.03280499 0.028508022 -0.111578144 0.012172894
0.04317744 -0.045344148 -0.019092299 0.008617735 0.06331759 0.106835954 -0.13914716 -0.07829666
0.03163697 0.097263776 0.09604277 0.0963829 -0.0016691454 -0.14955013 -0.015959926 -0.12530385
-0.15914758 0.0956326 0.07921175 -0.16770156 -0.011012841 -0.0545972 -0.052207198 -0.09348545
0.02280664 -0.12071679 0.02140892 0.042948328 0.07293534 0.022770928 -0.18263294 -0.12484791
0.042783983 0.0028126389 -0.13832764 -0.115299165 0.111324534 0.07618909 -0.08037137 -0.05811044
-0.16395852 -0.024089132 -0.124381274 -0.12622486 -0.024864541 -0.0011987159 -0.0802686 0.06603109
-0.100875214 0.11442906 0.07835807 -0.14459865 -0.058791712 -0.014184925 0.0018080284 0.011931632
0.02982686 -0.02063316 -0.0988477 0.037903022 -0.16798499 -0.11301386 -0.05962449 -0.09174537
-0.07595136 -0.14914045 -0.05488634 0.008720631 -0.11717434 -0.035645727 0.06862105 -0.033820484
-0.015274534 -0.035149503 0.0031186317 0.059917003 0.11398769 0.07042994 0.11247915 -0.034979403
-0.15704262 -0.09323728 0.07115436 -0.028160062 -0.10183359 -0.14627552 -0.18098362 -0.16790023
-0.067031525 0.04646317 0.045969676 -0.18382145 0.038227253 -0.16067949 -0.07088961 -0.09009383
-0.063727394 -0.06910563 -0.17994322 -0.17511624 -0.06571941 -0.021122973 -0.09435302 0.011521043
-0.18152885 -0.06802604 0.10933881 -0.07946951 0.10084055 0.013450014 -0.18944931 0.058254395
-0.055834673 -0.1027432 0.073250026 -0.15769513 -0.02312971 -0.07710383 0.05292648 -0.007122208
0.019274555 0.014418139 -0.076883964 -0.084319934 -0.17400658 0.01866167 0.08267915 0.06395306
-0.14646445 -0.055985108 -0.16917609 -0.104484595 -0.111087605 0.011018581 -0.13632935 -0.076323256
-0.016608076 0.07289209 -0.12449412 -0.121437654 -0.11546142 0.07756078 -0.0650592 0.10635413
0.030993493 -0.011001663 -0.026874056 -0.047622453 -0.0005483984 -0.055960853 -0.032268807 -0.011541018
-0.13891743 -0.10258832 0.0823565 -0.15317506 -0.043674767 0.104727045 0.013907376 -0.03631099
-0.16860226 0.043994803 -0.12190321 -0.05984398 -0.071246006 -0.05200561 -0.023273043 0.097411595
-7.838263e-05 0.10393831 0.056747086 -0.117138915 0.040926866 -0.121463284 -0.086491086 0.0082063405
0.0144938845 0.07745948 -0.07410405 -0.032361455 0.033462882 -0.1738971 0.06690143 -0.15429017
-0.039605048 -0.07087033 -0.08009928 0.0464069 0.15389846 -0.016343366 -0.0742519 -0.057613026

conv1_bn.weight f4 [16]
00000000: 0000 803f 0000 803f 0000 803f 0000 803f
00000010: 0000 803f 0000 803f 0000 803f 0000 803f
00000020: 0000 803f 0000 803f 0000 803f 0000 803f
00000030: 0000 803f 0000 803f 0000 803f 0000 803f
1.0 1.0 1.0 1.0 1.0 1.0 1.0 1.0
1.0 1.0 1.0 1.0 1.0 1.0 1.0 1.0

conv1_bn.bias f4 [16]
00000000: 0000 0000 0000 0000 0000 0000 0000 0000
00000010: 0000 0000 0000 0000 0000 0000 0000 0000
00000020: 0000 0000 0000 0000 0000 0000 0000 0000
00000030: 0000 0000 0000 0000 0000 0000 0000 0000
0.0 0.0 0.0 0.0 0.0 0.0 0.0 0.0
0.0 0.0 0.0 0.0 0.0 0.0 0.0 0.0

conv1_bn.running_mean f4 [16]
00000000: 0000 0000 0000 0000 0000 0000 0000 0000
00000010: 0000 0000 0000 0000 0000 0000 0000 0000
00000020: 0000 0000 0000 0000 0000 0000 0000 0000
00000030: 0000 0000 0000 0000 0000 0000 0000 0000
0.0 0.0 0.0 0.0 0.0 0.0 0.0 0.0
0.0 0.0 0.0 0.0 0.0 0.0 0.0 0.0

conv1_bn.running_var f4 [16]
00000000: 0000 803f 0000 803f 0000 803f 0000 803f
00000010: 0000 803f 0000 803f 0000 803f 0000 803f
00000020: 0000 803f 0000 803f 0000 803f 0000 803f
00000030: 0000 803f 0000 803f 0000 803f 0000 803f
1.0 1.0 1.0 1.0 1.0 1.0 1.0 1.0
1.0 1.0 1.0 1.0 1.0 1.0 1.0 1.0

conv2.weight f4 [32, 16, 5, 5]
00000000: 6582 323c 4553 19bd 2cbe 033d 8a8d c7bc
00000010: 646c 393c a042 133d f8f8 203d 5801 2bbd
00000020: 433b 173c 58c6 723c 4f54 44bd 3ad1 02bd
00000030: 7e2b 44bc a8bc 59bd a73a e33a 9433 a9bc
00000040: 9d92 4abd 51ff 393c 6c3b 05bd a431 deba
00000050: cc84 6abb 4831 53bd dd61 c3bb e22d 2bbd
00000060: a13d c6bc a69f d9bc c312 82bc 3a56 efbc
00000070: d844 0d3b 3338 3cbc 4135 963c 7978 babc
00000080: a09d 6abb acf1 c6bc 8f89 4bbd 7f78 193c
00000090: 590c d2bb 2ea2 0cbd 0e3b b8bc 09f2 453c
000000a0: 8d76 b7bc bcda 9b3c f47f 73bc c00a eb3b
000000b0: 98d5 a43c b8c3 1cbd c045 273b 7923 883c
000000c0: df6c 72bc de1b d43a 8531 6ebc a72a ab3c
000000d0: 7ac4 f9bc b7c4 e0bc 0b6a 9e3c 4f81 6ebd
000000e0: 1239 e03a 6f68 6ebc 1627 1c3d 7c61 36bd
000000f0: 1160 7a3c a99b 483d 8b26 963c 8b31 40bb
00000100: 6408 443d 4964 23bd 1f5f 6fbc dc40 0abd
00000110: 541c d9bc dfd2 0bbc e768 01bd 16bf 15bd
00000120: 721e aebd 0919 1cbd 564d 19bd 4fc2 fc3a
00000130: 21cd f03c ea7e 203d 4c5f 12bd a451 d239
00000140: 9d77 e5bc 5aff 5fbd f7d8 2fbd 9f81 443d
00000150: 998d 273d 831b a73b 5caa 3d3c 927e 78bd
00000160: 3895 bdba aa2c 573d 8382 61bd 8ab3 4a3c
00000170: 730c 0dbc 4070 873c 79a8 2abd 1459 8ebc
00000180: 1f11 a3bd b81b b3bc b753 d0bb 6c9d 03bc
00000190: 46ed c33c 4931 f03c 0894 c93c 63ba 8c3c
000001a0: 00c7 c03c 5bcb b0bc add3 60bd 4b43 0ebd
000001b0: 9d33 93bc e775 09bd f4aa 4e3c f809 d53b
000001c0: b184 20bb ec33 b83b 553e 2b3d 3e53 47b9
000001d0: f92a 6bbd 0626 4dbd b671 3b3c c20d 1d3b
000001e0: 01ef 31bc f4c1 9ebd 8707 9ebd 7d45 123c
000001f0: 37f2 853c 7504 a9bd f3d9 49bc 5c3c 7fbd
00000200: 5f89 a93c 88a4 9ebc 4087 963c fe1e 93bd
00000210: 9e3a 4bbd 9f23 ff3c 292b 973c a9f8 f13b
00000220: 0bcc f53b 588b 45bd 5609 093d 9de5 96bd
00000230: 2bd5 41bc 0165 6bbd 92b7 16bd 1009 7fbb
00000240: d1ae 6abd 7613 37bd acc4 b3bd 4a15 b5bd
00000250: cb34 fbbc 8d69 b8bd 0d77 c8bd e8d9 9fbd
00000260: 3807 c2bd 83e8 b2bd 36ac b9bc e892 00bd
00000270: ec8b 39bd 1640 8bbd e40e 80bc 389c 11bd
00000280: 3d01 bebd 46fd 30bd 8a0c 583b 70d7 abbd
00000290: bd32 bdbd 63ee 7bbd f0aa c9bc 8dba afbd
000002a0: d430 2bbd f6f0 cebc 4ef0 91bd f041 86bd
000002b0: 24fb a2bc 842d 1abd 5037 d7bd c732 43bd
000002c0: 3056 6ebc 51a3 bc3b 9430 b2bd 470d 95bc
000002d0: 74ce 53bd 8869 9fbd 6504 75bc 1299 4ebd
000002e0: 8c1f 9fbc 43e0 84bd 108f 7fbd a0d8 adbc
000002f0: 77b3 03bd 62c7 143c 0176 08bd 6e87 1f3c
00000300: 7c7c 25bc f628 0bbd 4327 213c 8154 34bd
00000310: 780b d6bc 1fb7 38bd 8deb f4bc cab0 30bd
00000320: ad81 f6bc a64a 7fbd afbd 86bc 682e 61bd
00000330: be37 1dbd 9cf5 d93b 6963 69bd bdfb 2ebd
00000340: 8ed3 71bc 43cb 1abd aec1 0abc 02da 00bc
00000350: ec68 9d3c 12d7 12bd ccf0 d6bc 877c 823c
00000360: 86cb fd3c c34c 8abc 416e 3ebd b5fc b4bc
00000370: b827 183c 6ae7 65bd 4734 65bd 8203 9dbc
00000380: 7bdf 6dbd 5207 9cbd 3677 49bd 854a 8d3b
00000390: 8ab5 f4bc db76 943c 420f 7f3c 7ef8 18bc
000003a0: 0527 94bc 276f d6bc cca0 56bc e547 86bc
000003b0: 0a81 67bd a821 dfbc 984f 5abd 4c0a 943c
000003c0: e683 80bd ecd4 ac3c 29e7 07bd 2379 3dbd
000003d0: aeda 863b 5e4f 1dbd 30ef 09bb 39bc 54bb
000003e0: b05a 8fbd d80c 0a3c d60b 25bd 3053 44bd
000003f0: 4c09 bc3b 0303 753c 8d85 7ebd 8b22 e2bc
0.010895346 -0.037432928 0.032163784 -0.024359483 0.011317346 0.03595221 0.039299935 -0.04174933
0.009230438 0.014817797 -0.047931965 -0.031937815 -0.01197326 -0.053158432 0.0017336205 -0.020654477
-0.049456228 0.011352376 -0.032527372 -0.001695205 -0.003578472 -0.05156067 -0.005962594 -0.041791804
-0.024199309 -0.026565384 -0.015878087 -0.02921592 0.0021555927 -0.011488008 0.01833594 -0.022762524
-0.0035799518 -0.02428516 -0.049691733 0.009367107 -0.0064101634 -0.034334354 -0.022489097 0.012081631
-0.022395397 0.0190252 -0.014862049 0.0071729124 0.02012138 -0.03827259 0.0025523752 0.016618477
-0.014796465 0.0016182621 -0.014538174 0.020894362 -0.030489195 -0.027437551 0.019337675 -0.058228787
0.0017106852 -0.014551266 0.038123213 -0.044526562 0.015281693 0.048976574 0.018328926 -0.0029326405
0.047859564 -0.03989056 -0.014610081 -0.03375326 -0.026502766 -0.008534162 -0.031594183 -0.036559187
-0.08501901 -0.038109813 -0.03742727 0.0019283983 0.029394688 0.039183535 -0.035735413 0.00040115148
-0.028011138 -0.05468688 -0.042931523 0.04797518 0.040906522 0.005099715 0.011576261 -0.06066758
-0.0014464026 0.05253283 -0.055056106 0.012371907 -0.008608925 0.016533017 -0.041664574 -0.01737646
-0.0796225 -0.021863803 -0.006357636 -0.008033138 0.023916852 0.029320376 0.02460672 0.01717872
0.02353239 -0.021581342 -0.05488937 -0.034732144 -0.017968947 -0.033559706 0.012614001 0.0065014325
-0.0024493153 0.005621424 0.04180749 -0.00019009129 -0.05741403 -0.05008509 0.011440685 0.00239645
-0.010860206 -0.077518374 -0.077162795 0.0089277 0.016350849 -0.08252803 -0.01232003 -0.062313423
0.020695386 -0.019365564 0.01837504 -0.07183646 -0.04961645 0.031144915 0.018453198 0.007384379
0.0075011305 -0.04822859 0.03345617 -0.07368014 -0.011830608 -0.05746937 -0.03679616 -0.0038915314
-0.057295624 -0.044696294 -0.087777466 -0.08841951 -0.030664822 -0.09004507 -0.09788332 -0.07805234
-0.09474033 -0.08735754 -0.022665124 -0.0313901 -0.045299456 -0.06799333 -0.0156321 -0.035549372
-0.0927758 -0.04321029 0.0032966458 -0.08390701 -0.09238193 -0.06150664 -0.024617642 -0.085805036
-0.041794613 -0.025261384 -0.071259126 -0.06555545 -0.019895144 -0.037641063 -0.10508597 -0.047655847
-0.014546916 0.0057567735 -0.08700672 -0.018194808 -0.05171056 -0.077838 -0.014954661 -0.050438948
-0.019424222 -0.06488087 -0.062392294 -0.021221459 -0.032153573 0.00908074 -0.033315662 0.009736879
-0.01010048 -0.03397461 0.009836021 -0.0440259 -0.026128516 -0.045096513 -0.029897476 -0.04313735
-0.030091131 -0.06232705 -0.01644787 -0.054975897 -0.038383238 0.0066515934 -0.05697957 -0.042720545
-0.014759911 -0.0377915 -0.008469028 -0.007864477 0.01921507 -0.03584964 -0.026237868 0.01592852
0.030980837 -0.016882306 -0.046491865 -0.022093156 0.009286813 -0.056128897 -0.05595806 -0.019166712
-0.058074456 -0.07618584 -0.049185954 0.004311862 -0.02987172 0.018123081 0.015567603 -0.009336589
-0.018085012 -0.026176048 -0.01309986 -0.016391704 -0.056519546 -0.027237728 -0.053298563 0.018071316
-0.06275158 0.021097623 -0.033179436 -0.046258103 0.004115424 -0.03840577 -0.0021047108 -0.0032460822
-0.06999719 0.008425914 -0.04029449 -0.047930896 0.005738413 0.014954331 -0.062139083 -0.027604362

conv2_bn.weight f4 [32]
00000000: 0000 803f 0000 803f 0000 803f 0000 803f
00000010: 0000 803f 0000 803f 0000 803f 0000 803f
00000020: 0000 803f 0000 803f 0000 803f 0000 803f
00000030: 0000 803f 0000 803f 0000 803f 0000 803f
00000040: 0000 803f 0000 803f 0000 803f 0000 803f
00000050: 0000 803f 0000 803f 0000 803f 0000 803f
00000060: 0000 803f 0000 803f 0000 803f 0000 803f
00000070: 0000 803f 0000 803f 0000 803f 0000 803f
1.0 1.0 1.0 1.0 1.0 1.0 1.0 1.0
1.0 1.0 1.0 1.0 1.0 1.0 1.0 1.0
1.0 1.0 1.0 1.0 1.0 1.0 1.0 1.0
1.0 1.0 1.0 1.0 1.0 1.0 1.0 1.0

conv2_bn.bias f4 [32]
00000000: 0000 0000 0000 0000 0000 0000 0000 0000
00000010: 0000 0000 0000 0000 0000 0000 0000 0000
00000020: 0000 0000 0000 0000 0000 0000 0000 0000
00000030: 0000 0000 0000 0000 0000 0000 0000 0000
00000040: 0000 0000 0000 0000 0000 0000 0000 0000
00000050: 0000 0000 0000 0000 0000 0000 0000 0000
00000060: 0000 0000 0000 0000 0000 0000 0000 0000
00000070: 0000 0000 0000 0000 0000 0000 0000 0000
0.0 0.0 0.0 0.0 0.0 0.0 0.0 0.0
0.0 0.0 0.0 0.0 0.0 0.0 0.0 0.0
0.0 0.0 0.0 0.0 0.0 0.0 0.0 0.0
0.0 0.0 0.0 0.0 0.0 0.0 0.0 0.0

conv2_bn.running_mean f4 [32]
00000000: 0000 0000 0000 0000 0000 0000 0000 0000
00000010: 0000 0000 0000 0000 0000 0000 0000 0000
00000020: 0000 0000 0000 0000 0000 0000 0000 0000
00000030: 0000 0000 0000 0000 0000 0000 0000 0000
00000040: 0000 0000 0000 0000 0000 0000 0000 0000
00000050: 0000 0000 0000 0000 0000 0000 0000 0000
00000060: 0000 0000 0000 0000 0000 0000 0000 0000
00000070: 0000 0000 0000 0000 0000 0000 0000 0000
0.0 0.0 0.0 0.0 0.0 0.0 0.0 0.0
0.0 0.0 0.0 0.0 0.0 0.0 0.0 0.0
0.0 0.0 0.0 0.0 0.0 0.0 0.0 0.0
0.0 0.0 0.0 0.0 0.0 0.0 0.0 0.0

conv2_bn.running_var f4 [32]
00000000: 0000 803f 0000 803f 0000 803f 0000 803f
00000010: 0000 803f 0000 803f 0000 803f 0000 803f
00000020: 0000 803f 0000 803f 0000 803f 0000 803f
00000030: 0000 803f 0000 803f 0000 803f 0000 803f
00000040: 0000 803f 0000 803f 0000 803f 0000 803f
00000050: 0000 803f 0000 803f 0000 803f 0000 803f
00000060: 0000 803f 0000 803f 0000 803f 0000 803f
00000070: 0000 803f 0000 803f 0000 803f 0000 803f
1.0 1.0 1.0 1.0 1.0 1.0 1.0 1.0
1.0 1.0 1.0 1.0 1.0 1.0 1.0 1.0
1.0 1.0 1.0 1.0 1.0 1.0 1.0 1.0
1.0 1.0 1.0 1.0 1.0 1.0 1.0 1.0

fc1.weight f4 [11, 800]
00000000: cd51 bdbc a729 373c bafb 243d 8af7 873c
00000010: 4e4a 8339 fb92 e5bc a1e8 903c 5a72 a9bc
00000020: b28d 873a c598 f83c 0728 adbb 8bbf 1e3c
00000030: 2a93 e6bc f005 ffbb 48c4 d53c 1fb3 0dbc
00000040: fbeb eabc c81e cabb f4b5 07bd 0acb 9d39
00000050: 6cb4 c53c 8115 463b 9d6d 7f3c c991 4a3c
00000060: 98a4 7c3b ed43 16bb b176 223d f78c ffbc
00000070: b499 603d fdba 0f3d 3ae5 5bbc e377 333d
00000080: b652 953c 4836 21bd 5c1b 103b ff1f 83bc
00000090: f10a 2eba 958a 033c 5cf4 ed3a b094 d0bc
000000a0: b166 a73b 83f1 0d3d 5f7d be3c 4504 0cbd
000000b0: 1561 973c 37b1 cbbc a42c 24bc 1b6a 23bc
000000c0: d00b a0bc f358 37bc 66c6 20bd 82cd c5bc
000000d0: 35b2 01bd be91 2cbd b102 ef3c 20c1 30bc
000000e0: c91a a2bc 7537 adbb 5eef 133d baba 183d
000000f0: 5927 47bc b6e6 bb3c b870 54bb 6898 243c
00000100: 7fdb 8abc ab63 1a3d fbcc ddbc 5fb4 8a3c
00000110: 95a2 bf3c 8202 813b 8184 c13c f992 853c
00000120: 54a1 68bc c5fa 0ebc ec1e 0d3c 61d0 82bc
00000130: 6696 5fbd f522 963b 8220 35bd 569f a43c
00000140: 3907 3dba fdab 94bb 7acc a6bc 9853 d1bc
00000150: 3920 c8bb 3509 4dbc 6eed 4bbb 400c 793c
00000160: a9f2 903c d52c b3bc 6adf 103b 8368 d23b
00000170: f90e eabc 1af3 9ebb 993a 8abc d6d5 daba
00000180: 70c1 29bd 957a 0dbd 6e91 5eba 6fca c2bc
00000190: d4ea 823c 69e0 80bc aca0 ac3b d389 6b3c
000001a0: 179f 31bd a540 783d 6cf6 4dbc 00ca de3c
000001b0: c2ae 82bc 6d97 5e3d 6970 3dbc a9bc 2fbd
000001c0: aac2 903d 6336 4e3d f24f f33b f220 ca3c
000001d0: bc0f 913d e435 8a3d 2001 b3bb 69a4 f53c
000001e0: ab41 373d 19fb 663d cc3b 6b3d d840 a13c
000001f0: 8541 483d df87 373d c02a d43c 8acf d3bc
00000200: 10e6 d23c 2e16 2fbd 0dfe 053d dd88 df3c
00000210: ca5e 2fbd 8efa ebbc c839 04b9 6f50 65bc
00000220: ec40 8c3a 235a 0d3d ab77 fc3c 023b 5bbb
00000230: ca9e c53b 52fd 07bd 56b4 933c eb45 b93c
00000240: caa4 eb3b 0645 19bd f51d b53b 4294 abbc
00000250: 458a 01bd 340a a03c fc37 30bd 7ecd 16bd
00000260: 498b 3b3c 43a2 21bd 3fc4 1f3c c18a ddbc
00000270: 543e 22bd 1468 06bd f211 47bd c56a 0f3c
00000280: 0922 5d3c aa9e 29bd 1a86 00bd 1c17 53bc
00000290: d9bd 273c 7a41 a73c 8ee4 c83c b6c1 02bd
000002a0: 5d64 ff3b 117b 233c 8399 e7bc 25ac a93c
000002b0: 98ee 313d c67e cbbc 3370 a93c 8e40 f33c
000002c0: 42b3 21bc 5709 eebc bc75 bd3c f445 e53c
000002d0: 3489 5e3d 2c38 b3bc 2807 50ba 39c8 ef3c
000002e0: aa8c 69bb 43f5 dd3c d2ce 16bc 27ca dfbc
000002f0: 4b37 053d 13f9 aabc e1b4 24bd 0d47 823d
00000300: 0c6e 373d 1664 033d b14c 783b 394b 86bc
00000310: 76e0 2c3d b7a9 2e3d 3173 cd3c 449c 6bbd
00000320: 0a7c 8b3b 7a37 50bc dfa6 3d3c aa7f 2d3d
00000330: aa19 e8bb f0be 6fbc 6372 2abc 4d1a 6e3c
00000340: 16bc b6bc d7a5 e6bb f876 a13a d2bb 5c3d
00000350: d1d6 1dbc e78b f9bc 4c30 883c 221c b73b
00000360: 47b6 5c3d 9cd3 a8bb 042a c53c 55ed 6d3d
00000370: 07f9 4dbd e705 853d 0c98 b4bc f3f6 f93b
00000380: be3f 9dbc 2ea6 8d3c 94f7 1b3c 3298 1b3c
00000390: 66d4 c0bc f931 a0bc c3da 09bc f38a 53bc
000003a0: 9300 4cbc a9c6 c13c c8b8 0abd dfef e0bc
000003b0: 86ee 1f3c 5008 f0bc fc19 36bd 6a29 25bd
000003c0: cb7a 1d3d b991 65bb 8415 c6bc 78b7 5d3c
000003d0: 2cc5 57bd 00f5 f1b9 72ff 71bc a2ec 86bc
000003e0: 4c28 563c 0b44 8d3c 6c8a 103d 7844 b13c
000003f0: 5da8 79bc 85a5 2abb 5491 1c3d 0f6d ebbc
-0.023110295 0.011179364 0.040279128 0.016597528 0.00025041628 -0.028024187 0.017689051 -0.02068441
0.0010341911 0.030346284 -0.0052843126 0.009689222 -0.028146345 -0.00778269 0.02609457 -0.008648663
-0.028676977 -0.00616822 -0.03313251 0.0003009665 0.024133883 0.003022522 0.015590099 0.012363859
0.0038550254 -0.002292867 0.039663974 -0.031195147 0.054834083 0.035090435 -0.013421351 0.043815505
0.018227916 -0.039358407 0.0021988964 -0.016006468 -0.00066392036 0.008028646 0.001815449 -0.025461525
0.0051086773 0.03465415 0.023253141 -0.03418376 0.01847891 -0.024864776 -0.010020409 -0.009974028
-0.019536883 -0.011190641 -0.039251707 -0.024145845 -0.031664092 -0.042131178 0.029176088 -0.010788232
-0.019788163 -0.005286152 0.03611695 0.03728745 -0.012155377 0.02293716 -0.0032415818 0.010046102
-0.016950367 0.037692707 -0.027075281 0.01693171 0.023392955 0.0039370665 0.023622753 0.016305434
-0.01419862 -0.00872678 0.008613329 -0.015968503 -0.05458679 0.004581804 -0.044220455 0.020095509
-0.0007210854 -0.004537104 -0.020361174 -0.025552556 -0.006107357 -0.012514402 -0.003111686 0.0152006745
0.017693834 -0.021871964 0.0022105821 0.00642115 -0.028571593 -0.0048507573 -0.016873645 -0.0016695808
-0.041444242 -0.03454073 -0.00084902986 -0.023778168 0.015981115 -0.015732007 0.005268177 0.014376122
-0.04336461 0.060608525 -0.012570959 0.02719593 -0.015952472 0.05434363 -0.011562445 -0.04290453
0.07068379 0.050344836 0.0074253017 0.024673913 0.07083079 0.0674856 -0.0054627806 0.029985623
0.04474036 0.05639181 0.057430074 0.01968424 0.04889061 0.04480731 0.025899291 -0.025855798
0.025744468 -0.04274576 0.032712985 0.027286941 -0.042815007 -0.028805997 -0.00012610026 -0.013996228
0.00107005 0.03450979 0.03081878 -0.003345192 0.006030892 -0.03320057 0.018030327 0.022616347
0.0071912752 -0.03741934 0.005527253 -0.020944718 -0.031626005 0.019536115 -0.04302214 -0.036817066
0.011446782 -0.039461385 0.009751379 -0.027043702 -0.039610222 -0.0328141 -0.0486011 0.008753483
0.013496884 -0.04141108 -0.03137789 -0.012883928 0.010238134 0.020416964 0.024523046 -0.03192302
0.0077939467 0.009978072 -0.028271442 0.020711968 0.04344043 -0.024840724 0.020683384 0.029693868
-0.009869399 -0.029057188 0.02312743 0.027987458 0.054330066 -0.02187737 -0.00079356367 0.029270278
-0.003563682 0.027094489 -0.009204583 -0.027318073 0.032523435 -0.020870721 -0.040211562 0.06361208
0.044782683 0.03207787 0.0037887509 -0.01639329 0.04220625 0.04264232 0.025079342 -0.057522073
0.00425673 -0.012708539 0.01157543 0.042358078 -0.0070831375 -0.014632925 -0.0104032485 0.014532638
-0.022306483 -0.0070388126 0.0012318781 0.053890057 -0.009633736 -0.030462218 0.016624592 0.0055880705
0.05388477 -0.005152179 0.024067886 0.058087666 -0.05028632 0.064952664 -0.022045158 0.0076283156
-0.019195434 0.017291155 0.009519476 0.009496735 -0.02353878 -0.019555079 -0.008413973 -0.012911546
-0.012451309 0.023654299 -0.033867627 -0.02745813 0.009761458 -0.029300839 -0.044458374 -0.0403227
0.038447183 -0.0035029484 -0.024180181 0.013532512 -0.052678272 -0.0004614964 -0.014770376 -0.016470257
0.013071131 0.01724436 0.03528826 0.021639094 -0.015237895 -0.0026038599 0.038224533 -0.028738527
